…
      "Skipping registering GPU devices...\n"
     ]
    },
    {
>>>>>>> 12093a1 (Second Commit)
=======
>>>>>>> 43c96305635f87a98310a3e8759cd1422e810105
     "name": "stdout",
     "output_type": "stream",
     "text": [
      "Model: \"sequential\"\n",
      "_________________________________________________________________\n",
<<<<<<< HEAD
<<<<<<< HEAD
=======
>>>>>>> 43c96305635f87a98310a3e8759cd1422e810105
      "Layer (type)                 Output Shape              Param #   \n",
      "=================================================================\n",
      "lstm (LSTM)                  (None, 50, 100)           50400     \n",
      "_________________________________________________________________\n",
      "dropout (Dropout)            (None, 50, 100)           0         \n",
      "_________________________________________________________________\n",
      "lstm_1 (LSTM)                (None, 50)                30200     \n",
      "_________________________________________________________________\n",
      "dropout_1 (Dropout)          (None, 50)                0         \n",
      "_________________________________________________________________\n",
      "dense (Dense)                (None, 3)                 153       \n",
<<<<<<< HEAD
=======
      " Layer (type)                Output Shape              Param #   \n",
      "=================================================================\n",
      " lstm (LSTM)                 (None, 50, 100)           50400     \n",
      "                                                                 \n",
      " dropout (Dropout)           (None, 50, 100)           0         \n",
      "                                                                 \n",
      " lstm_1 (LSTM)               (None, 50)                30200     \n",
      "                                                                 \n",
      " dropout_1 (Dropout)         (None, 50)                0         \n",
      "                                                                 \n",
      " dense (Dense)               (None, 3)                 153       \n",
      "                                                                 \n",
>>>>>>> 12093a1 (Second Commit)
=======
>>>>>>> 43c96305635f87a98310a3e8759cd1422e810105
      "=================================================================\n",
      "Total params: 80,753\n",
      "Trainable params: 80,753\n",
      "Non-trainable params: 0\n",
      "_________________________________________________________________\n",
…
